…
',\n        name='gated_activation_%d_s%d' % (i, s))([tanh_out, sigm_out])\n        res_x = layers.Convolution1D(nb_filters, 1, border_mode='same', bias=use_bias,\n        W_regularizer=l2(res_l2))(x)\n    skip_x = layers.Convolution1D(nb_filters, 1, border_mode='same', bias=use_bias,\n        W_regularizer=l2(res_l2))(x)\n    res_x = layers.Merge(mode='sum')([original_x, res_x])\n    return res_x, skip_x\n\n```", "```py\nLayer (type) Output Shape Param # Connected to\n====================================================================================================\ninput_part (InputLayer) (None, 1152, 256) 0\n____________________________________________________________________________________________________\ninitial_causal_conv (CausalAtrou (None, 1152, 256) 131328 input_part[0][0]\n____________________________________________________________________________________________________\ndilated_conv_1_tanh_s0 (CausalAt (None, 1152, 256) 131072 initial_causal_conv[0][0]\n____________________________________________________________________________________________________\ndilated_conv_1_sigm_s0 (CausalAt (None, 1152, 256) 131072 initial_causal_conv[0][0]\n____________________________________________________________________________________________________\ngated_activation_0_s0 (Merge) (None, 1152, 256) 0 dilated_conv_1_tanh_s0[0][0]\ndilated_conv_1_sigm_s0[0][0]\n______________________________________________________________________\n_____________________________\nconvolution1d_1 (Convolution1D) (None, 1152, 256) 65536 gated_activation_0_s0[0][0]\n____________________________________________________________________________________________________\nmerge_1 (Merge) (None, 1152, 256) 0 initial_causal_conv[0][0]\nconvolution1d_1[0][0]\n____________________________________________________________________________________________________\ndilated_conv_2_tanh_s0 (CausalAt (None, 1152, 256) 131072 merge_1[0][0]\n____________________________________________________________________________________________________\ndilated_conv_2_sigm_s0 (CausalAt (None, 1152, 256) 131072 merge_1[0][0]\n____________________________________________________________________________________________________\ngated_activation_1_s0 (Merge) (None, 1152, 256) 0 dilated_conv_2_tanh_s0[0][0]\ndilated_conv_2_sigm_s0[0][0]\n____________________________________________________________________________________________________\nconvolution1d_3 (Convolution1D) (None, 1152, 256) 65536 gated_activation_1_s0[0][0]\n____________________________________________________________________________________________________\nmerge_2 (Merge) (None, 1152, 256) 0 merge_1[0][0]\nconvolution1d_3[0][0]\n____________________________________________________________________________________________________\ndilated_conv_4_tanh_s0 (CausalAt (None, 1152, 256) 131072 merge_2[0][0]\n____________________________________________________________________________________________________\ndilated_conv_4_sigm_s0 (CausalAt (None, 1152, 256) 131072 merge_2[0][0]\n____________________________________________________________________________________________________\ngated_activation_2_s0 (Merge) (None, 1152, 256) 0 dilated_conv_4_tanh_s0[0][0]\ndilated_conv_4_sigm_s0[0][0]\n____________________________________________________________________________________________________\nconvolution1d_5 (Convolution1D) (None, 1152, 256) 65536 gated_activation_2_s0[0][0]\n____________________________________________________________________________________________________\nmerge_3 (Merge) (None, 1152, 256) 0 merge_2[0][0]\nconvolution1d_5[0][0]\n____________________________________________________________________________________________________\ndilated_conv_8_tanh_s0 (CausalAt (None, 1152, 256) 131072 merge_3[0][0]\n____________________________________________________________________________________________________\ndilated_conv_8_sigm_s0 (CausalAt (None, 1152, 256) 131072 merge_3[0][0]\n____________________________________________________________________________________________________\ngated_activation_3_s0 (Merge) (None, 1152, 256) 0 dilated_conv_8_tanh_s0[0][0]\ndilated_conv_8_sigm_s0[0][0]\n____________________________________________________________________________________________________\nconvolution1d_7 (Convolution1D) (None, 1152, 256) 65536 gated_activation_3_s0[0][0]\n____________________________________________________________________________________________________\nmerge_4 (Merge) (None, 1152, 256) 0 merge_3[0][0]\nconvolution1d_7[0][0]\n____________________________________________________________________________________________________\ndilated_conv_16_tanh_s0 (CausalA (None, 1152, 256) 131072 merge_4[0][0]\n____________________________________________________________________________________________________\ndilated_conv_16_sigm_s0 (CausalA (None, 1152, 256) 131072 merge_4[0][0]\n____________________________________________________________________________________________________\ngated_activation_4_s0 (Merge) (None, 1152, 256) 0 dilated_conv_16_tanh_s0[0][0]\ndilated_conv_16_sigm_s0[0][0]\n____________________________________________________________________________________________________\nconvolution1d_9 (Convolution1D) (None, 1152, 256) 65536 gated_activation_4_s0[0][0]\n____________________________________________________________________________________________________\nmerge_5 (Merge) (None, 1152, 256) 0 merge_4[0][0]\nconvolution1d_9[0][0]\n____________________________________________________________________________________________________\ndilated_conv_32_tanh_s0 (CausalA (None, 1152, 256) 131072 merge_5[0][0]\n____________________________________________________________________________________________________\ndilated_conv_32_sigm_s0 (CausalA (None, 1152, 256) 131072 merge_5[0][0]\n____________________________________________________________________________________________________\ngated_activation_5_s0 (Merge) (None, 1152, 256) 0 dilated_conv_32_tanh_s0[0][0]\ndilated_conv_32_sigm_s0[0][0]\n____________________________________________________________________________________________________\nconvolution1d_11 (Convolution1D) (None, 1152, 256) 65536 gated_activation_5_s0[0][0]\n____________________________________________________________________________________________________\nmerge_6 (Merge) (None, 1152, 256) 0 merge_5[0][0]\nconvolution1d_11[0][0]\n____________________________________________________________________________________________________\ndilated_conv_64_tanh_s0 (CausalA (None, 1152, 256) 131072 merge_6[0][0]\n____________________________________________________________________________________________________\ndilated_conv_64_sigm_s0 (CausalA (None, 1152, 256) 131072 merge_6[0][0]\n____________________________________________________________________________________________________\ngated_activation_6_s0 (Merge) (None, 1152, 256) 0 dilated_conv_64_tanh_s0[0][0]\ndilated_conv_64_sigm_s0[0][0]\n____________________________________________________________________________________________________\nconvolution1d_13 (Convolution1D) (None, 1152, 256) 65536 gated_activation_6_s0[0][0]\n____________________________________________________________________________________________________\nmerge_7 (Merge) (None, 1152, 256) 0 merge_6[0][0]\nconvolution1d_13[0][0]\n____________________________________________________________________________________________________\ndilated_conv_128_tanh_s0 (Causal (None, 1152, 256) 131072 merge_7[0][0]\n____________________________________________________________________________________________________\ndilated_conv_128_sigm_s0 (Causal (None, 1152, 256) 131072 merge_7[0][0]\n____________________________________________________________________________________________________\ngated_activation_7_s0 (Merge) (None, 1152, 256) 0 dilated_conv_128_tanh_s0[0][0]\ndilated_conv_128_sigm_s0[0][0]\n____________________________________________________________________________________________________\nconvolution1d_15 (Convolution1D) (None, 1152, 256) 65536 gated_activation_7_s0[0][0]\n____________________________________________________________________________________________________\nmerge_8 (Merge) (None, 1152, 256) 0 merge_7[0][0]\nconvolution1d_15[0][0]\n____________________________________________________________________________________________________\ndilated_conv_256_tanh_s0 (Causal (None, 1152, 256) 131072 merge_8[0][0]\n____________________________________________________________________________________________________\ndilated_conv_256_sigm_s0 (Causal (None, 1152, 256) 131072 merge_8[0][0]\n____________________________________________________________________________________________________\ngated_activation_8_s0 (Merge) (None, 1152, 256) 0 dilated_conv_256_tanh_s0[0][0]\ndilated_conv_256_sigm_s0[0][0]\n____________________________________________________________________________________________________\nconvolution1d_17 (Convolution1D) (None, 1152, 256) 65536 gated_activation_8_s0[0][0]\n____________________________________________________________________________________________________\nmerge_9 (Merge) (None, 1152, 256) 0 merge_8[0][0]\nconvolution1d_17[0][0]\n____________________________________________________________________________________________________\ndilated_conv_512_tanh_s0 (Causal (None, 1152, 256) 131072 merge_9[0][0]\n____________________________________________________________________________________________________\ndilated_conv_512_sigm_s0 (Causal (None, 1152, 256) 131072 merge_9[0][0]\n____________________________________________________________________________________________________\ngated_activation_9_s0 (Merge) (None, 1152, 256) 0 dilated_conv_512_tanh_s0[0][0]\ndilated_conv_512_sigm_s0[0][0]\n____________________________________________________________________________________________________\nconvolution1d_2 (Convolution1D) (None, 1152, 256) 65536 gated_activation_0_s0[0][0]\n____________________________________________________________________________________________________\nconvolution1d_4 (Convolution1D) (None, 1152, 256) 65536 gated_activation_1_s0[0][0]\n____________________________________________________________________________________________________\nconvolution1d_6 (Convolution1D) (None, 1152, 256) 65536 gated_activation_2_s0[0][0]\n____________________________________________________________________________________________________\nconvolution1d_8 (Convolution1D) (None, 1152, 256) 65536 gated_activation_3_s0[0][0]\n____________________________________________________________________________________________________\nconvolution1d_10 (Convolution1D) (None, 1152, 256) 65536 gated_activation_4_s0[0][0]\n____________________________________________________________________________________________________\nconvolution1d_12 (Convolution1D) (None, 1152, 256) 65536 gated_activation_5_s0[0][0]\n____________________________________________________________________________________________________\nconvolution1d_14 (Convolution1D) (None, 1152, 256) 65536 gated_activation_6_s0[0][0]\n____________________________________________________________________________________________________\nconvolution1d_16 (Convolution1D) (None, 1152, 256) 65536 gated_activation_7_s0[0][0]\n____________________________________________________________________________________________________\nconvolution1d_18 (Convolution1D) (None, 1152, 256) 65536 gated_activation_8_s0[0][0]\n____________________________________________________________________________________________________\nconvolution1d_20 (Convolution1D) (None, 1152, 256) 65536 gated_activation_9_s0[0][0]\n____________________________________________________________________________________________________\nmerge_11 (Merge) (None, 1152, 256) 0 convolution1d_2[0][0]\nconvolution1d_4[0][0]\nconvolution1d_6[0][0]\nconvolution1d_8[0][0]\nconvolution1d_10[0][0]\nconvolution1d_12[0][0]\nconvolution1d_14[0][0]\nconvolution1d_16[0][0]\nconvolution1d_18[0][0]\nconvolution1d_20[0][0]\n____________________________________________________________________________________________________\nactivation_1 (Activation) (None, 1152, 256) 0 merge_11[0][0]\n____________________________________________________________________________________________________\nconvolution1d_21 (Convolution1D) (None, 1152, 256) 65792 activation_1[0][0]\n____________________________________________________________________________________________________\nactivation_2 (Activation) (None, 1152, 256) 0 convolution1d_21[0][0]\n____________________________________________________________________________________________________\nconvolution1d_22 (Convolution1D) (None, 1152, 256) 65792 activation_2[0][0]\n____________________________________________________________________________________________________\noutput_softmax (Activation) (None, 1152, 256) 0 convolution1d_22[0][0]\n====================================================================================================\nTotal params: 4,129,536\nTrainable params: 4,129,536\nNon-trainable params: 0\n\n```"]