["```py\nChapter19$ ./01_a2c.py --dev cuda -n v0 --save save/v0 --db-path db-v0 \nA.L.E: Arcade Learning Environment (version 0.8.1+53f58b7) \n[Powered by Stella] \nAtariA2C( \n  (conv): Sequential( \n   (0): Conv2d(4, 32, kernel_size=(8, 8), stride=(4, 4)) \n   (1): ReLU() \n   (2): Conv2d(32, 64, kernel_size=(4, 4), stride=(2, 2)) \n   (3): ReLU() \n   (4): Conv2d(64, 64, kernel_size=(3, 3), stride=(1, 1)) \n   (5): ReLU() \n   (6): Flatten(start_dim=1, end_dim=-1) \n  ) \n  (policy): Sequential( \n   (0): Linear(in_features=3136, out_features=512, bias=True) \n   (1): ReLU() \n   (2): Linear(in_features=512, out_features=18, bias=True) \n  ) \n  (value): Sequential( \n   (0): Linear(in_features=3136, out_features=512, bias=True) \n   (1): ReLU() \n   (2): Linear(in_features=512, out_features=1, bias=True) \n  ) \n) \n0: Testing model... \nGot best reward 40.00 and steps 213.0 in 10 episodes \n1024: done 1 games, mean reward 0.000, steps 70, speed 312.22 f/s \n1056: done 2 games, mean reward 0.000, steps 72, speed 1188.69 f/s \n1104: done 3 games, mean reward 0.000, steps 75, speed 1216.18 f/s\n```", "```py\n# how many transitions to store in episode \nEPI
…
h.sum(r1, 1) \n\n    s2_obs_flat = s2_obs.flatten(0, 1) \n    s2_acts_flat = s2_acts.flatten(0, 1) \n    r2_flat = model(s2_obs_flat, s2_acts_flat) \n    r2 = r2_flat.view((batch_size, steps)) \n    R2 = torch.sum(r2, 1) \n    R = torch.hstack((R1.unsqueeze(-1), R2.unsqueeze(-1))) \n    loss_t = F.binary_cross_entropy_with_logits(R, mu) \n    return loss_t\n```", "```py\nChapter19$ ./03_reward_train.py --dev cuda -n v0-rw -o rw db-v0 \nNamespace(dev=’cuda’, name=v0-rw’, out=’rw’, dbs=[’db-v0’]) \nLoaded DB from db-v0 with 149 labels and 2534 paths \nRewardModel( \n  (conv): Sequential( \n   (0): Conv2d(3, 16, kernel_size=(7, 7), stride=(3, 3)) \n   (1): BatchNorm2d(16, eps=1e-05, momentum=0.1, affine=True, track_running_stats=True) \n   (2): Dropout(p=0.5, inplace=False) \n   (3): LeakyReLU(negative_slope=0.01) \n   (4): Conv2d(16, 16, kernel_size=(5, 5), stride=(2, 2)) \n   (5): BatchNorm2d(16, eps=1e-05, momentum=0.1, affine=True, track_running_stats=True) \n   (6): Dropout(p=0.5, inplace=False) \n   (7): LeakyReLU(negative_slope=0.01) \n   (8): Conv2d(16, 16, kernel_size=(3, 3), stride=(1, 1)) \n   (9): BatchNorm2d(16, eps=1e-05, momentum=0.1, affine=True, track_running_stats=True) \n   (10): Dropout(p=0.5, inplace=False) \n   (11): LeakyReLU(negative_slope=0.01) \n   (12): Conv2d(16, 16, kernel_size=(3, 3), stride=(1, 1)) \n   (13): BatchNorm2d(16, eps=1e-05, momentum=0.1, affine=True, track_running_stats=True) \n   (14): Dropout(p=0.5, inplace=False) \n   (15): LeakyReLU(negative_slope=0.01) \n   (16): Flatten(start_dim=1, end_dim=-1) \n  ) \n  (out): Sequential( \n   (0): Linear(in_features=8978, out_features=64, bias=True) \n   (1): LeakyReLU(negative_slope=0.01) \n   (2): Linear(in_features=64, out_features=1, bias=True) \n  ) \n) \nEpoch 0 done, train loss 0.131852, test loss 0.132976 \nSave model for 0.13298 test loss \nEpoch 1 done, train loss 0.104426, test loss 0.354560 \nEpoch 2 done, train loss 0.159513, test loss 0.170160 \nEpoch 3 done, train loss 0.054362, test loss 0.066557 \nSave model for 0.06656 test loss \nEpoch 4 done, train loss 0.046695, test loss 0.1216
…
