…
')\n>>> embedded_sequences = embedding_layer(sequence_input)\n>>> x = Conv1D(128, 5, activation='relu')(embedded_sequences)\n>>> x = MaxPooling1D(5)(x)\n>>> x = Conv1D(128, 5, activation='relu')(x)\n>>> x = MaxPooling1D(5)(x)\n>>> x = Conv1D(128, 5, activation='relu')(x)\n>>> x = GlobalMaxPooling1D()(x)\n>>> x = Dense(128, activation='relu')(x)\n>>> preds = Dense(6, activation='softmax')(x)\n```", "```py\n_________________________________________________________________ \nLayer (type) Output Shape Param #\n=================================================================\ninput_1 (InputLayer) (None, 1000) 0\n_______________________________________________________________\nembedding_1 (Embedding) (None, 1000, 300) 6000000 _______________________________________________________________\nconv1d_1 (Conv1D) (None, 996, 128) 192128\n_______________________________________________________________\nmax_pooling1d_1 (MaxPooling1 (None, 199, 128) 0 _______________________________________________________________\nconv1d_2 (Conv1D) (None, 195, 128) 82048\n_______________________________________________________________\nmax_pooling1d_2 (MaxPooling1 (None, 39, 128) 0 _______________________________________________________________\nconv1d_3 (Conv1D) (None, 35, 128) 82048\n_______________________________________________________________\nglobal_max_pooling1d_1 (Glob (None, 128) 0\n_______________________________________________________________\ndense_1 (Dense) (None, 128) 16512\n_______________________________________________________________\ndense_2 (Dense) (None, 6) 774\n=================================================================\nTotal params: 6,373,510 \nTrainable params: 373,510 \nNon-trainable params: 6,000,000\n_________________________________________________________________\n```", "```py\nword_embeddings = tf.get_variable(“word_embeddings”,\n                                  [vocabulary_size, embedding_size])\nembedded_word_ids = tf.nn.embedding_loo
…
