…
000\n[3,] 0.000 0.855 0.069 0.032 0.021 0.017 0.002 0.002\n[4,] 0.134 0.001 0.000 0.000 0.000 0.000 0.001 0.864\n[5,] 0.011 0.064 0.057 0.226 0.051 0.515 0.004 0.073\n[6,] 0.108 0.277 0.135 0.066 0.094 0.091 0.052 0.179\n```", "```py\n> library(keras)\n> model <- application_vgg16(weights = 'imagenet', include_top = TRUE)\n\n> summary(model)\n_________________________________________________________________________\nLayer (type)                     Output Shape                 Param # \n=========================================================================\ninput_1 (InputLayer)             (None, 224, 224, 3)          0 \n_________________________________________________________________________\nblock1_conv1 (Conv2D)            (None, 224, 224, 64)         1792 \n_________________________________________________________________________\nblock1_conv2 (Conv2D)            (None, 224, 224, 64)         36928 \n_________________________________________________________________________\nblock1_pool (MaxPooling2D)       (None, 112, 112, 64)         0 \n_________________________________________________________________________\nblock2_conv1 (Conv2D)            (None, 112, 112, 128)        73856 \n_________________________________________________________________________\nblock2_conv2 (Conv2D)            (None, 112, 112, 128)        147584 \n_________________________________________________________________________\nblock2_pool (MaxPooling2D)       (None, 56, 56, 128)          0 \n_________________________________________________________________________\nblock3_conv1 (Conv2D)            (None, 56, 56, 256)          295168 \n_________________________________________________________________________\nblock3_conv2 (Conv2D)            (None, 56, 56, 256)          590080 \n_________________________________________________________________________\nblock3_conv3 (Conv2D)            (None, 56, 56, 256)          590080 \n_________________________________________________________________________\nblock3_pool (MaxPooling2D)       (None, 28, 28, 256)          0 \n_________________________________________________________________________\nblock4_conv1 (Conv2D)            (None, 28, 28, 512)          1180160 \n_________________________________________________________________________\nblock4_conv2 (Conv2D)            (None, 28, 28, 512)          2359808 \n_________________________________________________________________________\nblock4_conv3 (Conv2D)            (None, 28, 28, 512)          2359808 \n_________________________________________________________________________\nblock4_pool (MaxPooling2D)       (None, 14, 14, 512)          0 \n_________________________________________________________________________\nblock5_conv1 (Conv2D)            (None, 14, 14, 512)          2359808 \n_________________________________________________________________________\nblock5_conv2 (Conv2D)            (None, 14, 14, 512)          2359808 \n_________________________________________________________________________\nblock5_conv3 (Conv2D)            (None, 14, 14, 512)          2359808 \n_________________________________________________________________________\nblock5_pool (MaxPooling2D)       (None, 7, 7, 512)            0 \n_________________________________________________________________________\nflatten (Flatten)                (None, 25088)                0 \n_________________________________________________________________________\nfc1 (Dense)                      (None, 4096)                 102764544 \n_________________________________________________________________________\nfc2 (Dense)                      (None, 4096)                 16781312 \n_________________________________________________________________________\npredictions (Dense)              (None, 1000)                 4097000 \n=========================================================================\nTotal params: 138,357,544\nTrainable params: 138,357,544\nNon-trainable params: 0\n_________________________________________________________________________\n```", "```py\n> img_path <- \"image1.jpg\"\n> img <- image_load(img_path, target_size = c(224,224))\n> x <- image_to_array(img)\n> x <- array_reshape(x, c(1, dim(x)
…
